best_lenet_model.pth (torch, 255606 bytes, 10 tensors)

conv1.weight f4 [6, 3, 5, 5]
000000 10 f4 7c 3e 8e 75 c4 3d 8a 3c 08 3e 4e 0e a8 3d
       0.24702477 0.09592734 0.13304344 0.082058534
000010 84 ad af 3d 09 91 7d 3e dd d0 b0 bd 38 a3 83 be
       0.08578017 0.24762358 -0.086335875 -0.25710464
000020 dc 11 69 be 70 06 76 bd 63 5f cd 3d 4a e9 73 be
       -0.22760719 -0.060064733 0.10027959 -0.23819461
000030 01 de 43 be ea 26 32 be d3 3c 19 3d ce 31 00 bb
       -0.19127657 -0.17397657 0.037411522 -0.0019560936
000040 37 88 44 be 2a ab eb bd e7 04 9a 3c 14 46 b1 3d
       -0.19192587 -0.11507256 0.018801166 0.086559445
000050 5f 6b f9 bd 86 e3 09 be b2 07 a1 bd f9 db 0f 3e
       -0.121786825 -0.134657 -0.07862796 0.14048757
000060 3b 41 21 3e 0b 41 f9 3d 1a c4 d2 3d 1e f0 39 3e
       0.1574754 0.12170609 0.1029131 0.18158004
000070 12 da 85 3d 9f e0 f0 ba 10 e0 95 3e 0c 20 cf bb
       0.06535734 -0.0018377489 0.2927251 -0.006320959
000080 97 75 2d be 3f 24 23 be df e9 0a be 1e 6d 99 3c
       -0.16939388 -0.15931796 -0.13565777 0.018728789
000090 8a e3 68 bd f7 e5 84 be a3 54 ee bd 52 81 d8 3c
       -0.056857623 -0.259567 -0.11637237 0.026428852
0000a0 aa 89 2f bd c1 a3 b0 bc 9f 53 d2 bd a9 bd 2b 3e
       -0.042855896 -0.021562459 -0.10269856 0.16771568
0000b0 90 15 8a 3e 5c 19 a4 bd 18 58 c3 bd e2 3a 84 3d
       0.26969576 -0.080126494 -0.09538287 0.064565435
0000c0 4c f7 a0 3e 7a 15 65 3e 16 b1 24 3e 9d bb a6 bc
       0.31438673 0.22371474 0.16083178 -0.020353133
0000d0 b9 5d 9a 3d f0 e1 bc bd a0 42 ea bd 7b be 0b 3e
       0.075374074 -0.09222782 -0.11438489 0.13646881
0000e0 21 3b 12 bd f8 f7 35 be 28 b3 56 be 12 83 5a bd
       -0.03570092 -0.17770374 -0.2096678 -0.053347655
0000f0 fd 53 9e 3d 9b 00 52 be 96 cb 5c be a9 0d e6 bc
       0.07730863 -0.20508043 -0.21562037 -0.028082686
000100 5c 1e 0d bd 38 ac b4 bd 99 b5 68 bd 41 71 88 3c
       -0.03445278 -0.088219106 -0.05681381 0.016655566
000110 f7 40 ae 3d 14 08 6f 3e 2a 05 8f 3d 48 1d a3 3c
       0.08508485 0.23342925 0.06983407 0.019911423
000120 8b a0 a4 3d 41 ca fb 3d 31 3e 04 3d 50 d2 5e 3d
       0.08038434 0.12294436 0.032285873 0.05439979
000130 60 12 24 3e cd 40 88 3b de 4a 90 3d 0c a0 87 3d
       0.16022635 0.0041581155 0.0704553 0.066223234
000140 51 d5 0b 3e b6 69 08 3e 13 4f 27 3e a9 91 f4 3d
       0.13655593 0.13321576 0.16338758 0.11941845
000150 59 62 98 3d 14 de eb 3d 2e 5f 4b 3e 07 c1 29 3e
       0.07440633 0.115169674 0.19860527 0.1657754
000160 d0 89 49 3e 20 29 31 3e 34 e6 dc 3d 97 c1 22 3d
       0.19681478 0.17300844 0.10786095 0.039735403
000170 dc d2 15 3e 24 e5 d9 3d 81 e6 75 3e bb e3 0e 3e
       0.14631218 0.10639408 0.24013712 0.1395406
000180 cb 08 45 3e 72 c7 71 3d 34 65 a4 3d c1 6f 5f 3d
       0.19241636 0.059028096 0.080271155 0.054549936
000190 39 25 6b bd 12 88 27 be 1c e7 e2 bd 70 7f 05 bd
       -0.057408545 -0.163605 -0.11079237 -0.032592237
0001a0 ee 37 5a bd 36 60 12 be 29 67 91 bd 03 c9 11 be
       -0.053275995 -0.14294514 -0.07099754 -0.14236836
0001b0 3a aa 89 bd af 89 23 3d e5 a0 0a be 4b ab d3 bd
       -0.06721921 0.039926227 -0.13537939 -0.10335406
0001c0 66 82 5e be 59 8b 16 be a3 c6 49 be ff b4 29 bd
       -0.2172943 -0.14701594 -0.1970468 -0.041432377
0001d0 f7 f3 9c bd d1 27 1f be d2 da 88 be 9d a3 37 be
       -0.0766372 -0.15542533 -0.26729447 -0.17933507
0001e0 99 ef 62 bd 29 41 1b bc 33 13 65 be 91 a5 20 be
       -0.05540428 -0.009475985 -0.22370605 -0.15688159
0001f0 07 ee 00 be 49 42 11 3e 69 ab c4 3d 6d 2b a2 bd
       -0.125908 0.14185442 0.096030064 -0.07918439
000200 d0 fb 9d 3c bb 16 d0 bc e2 f2 b0 bd ef 5d 28 3d
       0.019285113 -0.025401464 -0.08640076 0.041105207
000210 63 e5 3f bc ce 7b 83 3d c6 78 0b 3e d3 b7 b4 bc
       -0.011712405 0.06420098 0.1362029 -0.02206031
000220 36 71 96 bd 0a 6e 73 bd 0f 7d cc bb 12 b8 d0 3d
       -0.07345812 -0.059431113 -0.006240494 0.101913586
000230 2c ae de 3d 59 7c 89 3d 6b 08 b9 bd 7c 16 07 be
       0.108730644 0.067131706 -0.09034809 -0.13192171
000240 63 14 84 bd 5c 76 4b bc 2d 69 a4 bd 90 ee e8 3d
       -0.06449201 -0.012418356 -0.08027873 0.11373627
000250 2b 3b 10 bd 85 ea b6 3d 0e 90 ee 3b 57 9b ab 3d
       -0.035212677 0.0893145 0.0072803563 0.08379238
000260 9c 08 9a bd 03 28 d7 3c f7 8f 21 3d d5 10 c2 3c
       -0.07521173 0.026264196 0.039443936 0.023689667
000270 80 39 0f bd 45 0c 40 3c 3b a0 8b bd a8 4b da 3d
       -0.034966946 0.011721675 -0.06817671 0.106589615
000280 93 b4 14 3d 89 a1 0e 3d a1 0d d0 3d 77 1e e0 3d
       0.03630502 0.03482202 0.101588495 0.10943311
000290 db 86 1d bd 19 15 fd bc f7 4d e2 bc 46 e4 0a 3d
       -0.038458686 -0.03089385 -0.027625067 0.033909105
0002a0 e8 2e 89 bd a8 36 b1 bd 48 4c 26 bd f5 6c c6 bd
       -0.066984 -0.08653003 -0.04060009 -0.09688751
0002b0 44 4e 8a 3d 68 a5 f6 bd fb a1 98 bd 78 76 a5 3d
       0.06753209 -0.120432675 -0.0745277 0.08079237
0002c0 fe 03 f8 3d 85 ef 1b bb 75 bd b0 bc 37 3f a7 bc
       0.121101364 -0.0023793888 -0.021574715 -0.020415885
0002d0 98 9a 9c bd 36 bc 66 3d d2 f9 e0 3d 94 e5 ee 3d
       -0.07646674 0.056331836 0.109851494 0.11664882
0002e0 fa 58 73 3d 66 aa 24 3e b8 e0 be 3d ca 6e 2c 3e
       0.059411027 0.16080627 0.093202055 0.16839138
0002f0 69 df 8a 3d 7d 5a 51 3e cd a3 c4 3d b7 e2 c1 3d
       0.06780893 0.20444675 0.09601555 0.094670705
000300 42 77 ea 3d 57 b4 bc 3d c3 64 b8 3d 92 5a c2 3d
       0.11448528 0.092140846 0.09003594 0.09489931
000310 a9 a0 57 3e 5f d7 a4 3c 74 93 8d 3c ef 5b 2d 3e
       0.2105738 0.020122228 0.017282225 0.16929601
000320 99 8c 3c be be f8 7b be 78 49 9a be c0 19 4f be
       -0.18413009 -0.24606606 -0.30134177 -0.20224667
000330 8a 79 52 be 70 71 4e be 5d 5f 79 bd a1 dc a1 bd
       -0.20554176 -0.2016046 -0.06088196 -0.0790341
000340 1e 74 76 be d6 53 7c bd a8 bb 71 bd d5 c1 59 bd
       -0.24067733 -0.06160339 -0.059016854 -0.05316337
000350 c9 6a e7 3c 85 29 d8 bd 16 e9 ad bd f9 7a d9 3d
       0.028249161 -0.10554794 -0.08491723 0.10619158
000360 c3 9f 03 bc 25 ff 04 3e b3 14 82 bd a7 da 3e bd
       -0.008033696 0.12987955 -0.06351604 -0.046595242
000370 b2 fc 11 3d e7 9d 17 3e 17 2b 07 3e 41 93 81 3b
       0.03564138 0.14806329 0.13200031 0.0039543216
000380 1c 5e 8f bd 4d 0c 03 3e 22 5d 56 3d 12 87 9a bd
       -0.07000372 0.12797661 0.052334912 -0.07545294
000390 c4 6a be bd 16 0e a8 bd a5 af 90 3d 3b ef b9 3d
       -0.09297708 -0.08205812 0.070647515 0.09078833
0003a0 b4 ee 1e 3e 88 5d 37 bd c4 3c 67 3c 7b 82 df 3c
       0.15520746 -0.044766933 0.014113609 0.027283898
0003b0 34 d6 ac 3d f4 f4 c5 3d 6a 36 58 3e 2c c4 23 3e
       0.084392935 0.09665862 0.21114507 0.15992802
0003c0 10 87 0a 3d 04 ec 3d 3e 81 c1 57 3e ae 77 48 3d
       0.033820212 0.18547064 0.2106991 0.04894226
0003d0 d2 c4 40 3e 87 3a 36 3e 11 d7 1a 3d bd 62 0f 3e
       0.18825081 0.17795764 0.03780276 0.1400251
0003e0 0e a1 52 bc 1b 90 81 3d 52 96 4b be 4a 4b 10 be
       -0.012855781 0.06326314 -0.19881561 -0.1409122
0003f0 e9 65 1f be 6e 8b 45 be 9f 4e 65 be e3 54 3f bd
       -0.1556622 -0.1929147 -0.22393273 -0.046711814

conv1.bias f4 [6]
000000 0c 01 0c be ce 2b 86 bd b3 ef 8d 3e e0 d0 60 3e
       -0.13672274 -0.06551324 0.27721938 0.2195468
000010 58 cd bf 3c 5d dd b9 3d
       0.023413345 0.09075425

conv2.weight f4 [16, 6, 5, 5]
000000 12 66 2a be cf 82 2a be f6 49 56 be ab a7 90 be
       -0.16640499 -0.16651462 -0.20926651 -0.2825292
000010 11 b9 3d be 65 26 e6 bd ab cf 95 be 55 10 6b be
       -0.18527628 -0.11237792 -0.2926 -0.22955449
000020 fd 86 87 be 1b 0f 25 be d3 41 14 be 1a 4e 23 be
       -0.26470175 -0.16119044 -0.14478235 -0.15947762
000030 18 fb 3b be cd 63 86 bd 5f fd 74 be 68 01 27 bd
       -0.18357503 -0.06562004 -0.23924778 -0.040772825
000040 45 57 17 be 76 fc 8b bd 4e 73 8b be b2 c0 35 be
       -0.14779384 -0.068352625 -0.27236408 -0.17749289
000050 e4 ab 29 be c6 2e 6f bd bc 67 3a be 3a 84 4b be
       -0.16569477 -0.058394216 -0.18203634 -0.19874659
000060 3d 34 54 be e4 25 97 3d 29 7b 22 3d 51 4b 8b 3b
       -0.20723052 0.07380274 0.039668236 0.004250922
000070 b3 e8 7d 3d 1d 65 af 3d f2 9f d5 bc 88 6b 47 bd
       0.061989497 0.08564208 -0.026077244 -0.048686534
000080 1f 44 43 bd ad 04 9f 39 c9 df 7a 3d 47 c4 c1 3b
       -0.047672387 0.00030330327 0.061248574 0.0059132907
000090 de 20 ec bc 97 59 ca bc 32 29 bb bd eb 8f 66 3d
       -0.028824266 -0.024700923 -0.09138717 0.056289595
0000a0 a1 c8 ab 3d 19 62 c9 bd fc e8 ff bd 8c 4f 97 bd
       0.08387876 -0.09833164 -0.1249561 -0.07388219
0000b0 90 ad 28 3d d4 84 ba 3d 5e c4 87 bd da 73 c1 3c
       0.041181147 0.09107366 -0.06629251 0.023614813
0000c0 73 6e ba bd 6b 7b 71 3d 1b 64 f6 3a a9 31 a0 3d
       -0.09103098 0.05895559 0.0018798144 0.07821972
0000d0 22 ea 69 bd 2d 47 0c be 6d ba cd ba 1f 63 0f 3e
       -0.057108052 -0.13699026 -0.0015695818 0.14002655
0000e0 be 9a dc 3c e4 b0 59 bd df 01 e4 bd fc 60 cb bd
       0.026929256 -0.05314721 -0.111331694 -0.09930608
0000f0 5e 0e 92 3d cc 1d 12 3d 74 78 1a bd 1f 6e 4a 3c
       0.071316466 0.035672948 -0.03771253 0.0123553565
000100 bc 52 13 be 6d ad cb bc ba 42 23 bd 3c 9c db bc
       -0.1438703 -0.02486297 -0.039858557 -0.026807897
000110 be e6 aa 3d 57 13 80 bd 85 96 70 bd fc 73 b0 3d
       0.08344792 -0.06253689 -0.058737297 0.08615872
000120 3f f3 cc 3d 49 68 8e 3d 44 b8 e5 3b 37 3b f8 3c
       0.10007333 0.069534846 0.0070104916 0.030301673
000130 8f 14 db 3c fe 8b bc 3d 59 63 a8 3d f4 68 af 3d
       0.026743202 0.09206389 0.08222074 0.0856494
000140 b0 b0 25 3d c1 de 2d bd dd 07 af ba 12 5b d8 bd
       0.040451705 -0.042448763 -0.0013353784 -0.10564245
000150 c2 55 67 3d de cf 21 bd 3f 9c dc bc 77 56 11 bd
       0.05647827 -0.03950488 -0.026929973 -0.03548285
000160 13 d1 d1 bd 45 48 93 3b 46 e8 84 bd 35 f5 58 3b
       -0.10244956 0.004494699 -0.06489615 0.003310514
000170 b2 d3 94 3d 86 5f 69 bd 21 93 97 3b f7 7c 39 3d
       0.0726694 -0.056975864 0.0046256934 0.04528519
000180 3d e1 0e 3d 67 7c 18 3d bc 06 94 3d 13 ae e3 3c
       0.034882773 0.037228014 0.07227847 0.027792966
000190 74 c4 ae bd b2 69 3d be f3 ea 65 be 60 76 57 be
       -0.08533564 -0.18497351 -0.22452907 -0.2104125
0001a0 ae d2 9b be 1c 43 a4 b9 80 44 cf bd 34 69 42 be
       -0.30434173 -0.00031330518 -0.10120487 -0.18985444
0001b0 1b 14 3c be 52 ec 65 be 1f 23 cf 3d 96 b9 5b bd
       -0.18367045 -0.2245343 0.10114121 -0.053643785
0001c0 fb 31 d3 bd c1 13 8f be 31 89 51 be 98 86 44 3d
       -0.103122674 -0.2794476 -0.2046249 0.04797992
0001d0 a8 a0 79 be f0 a6 cf be a4 bf b1 be c5 19 88 be
       -0.24377692 -0.4055705 -0.34716523 -0.2658216
0001e0 0f 98 1d 3d b4 e8 10 be 75 50 bf be 12 8b c4 be
       0.038475093 -0.14151269 -0.3736607 -0.38387352
0001f0 81 6d 19 be bf 5d 15 3e f4 d1 ba 3d b0 3e b4 3b
       -0.14983179 0.14586543 0.09122077 0.005500637
000200 42 50 87 3d aa 7c 7b 3c 6d 8a 0d 3e 8b 03 91 3d
       0.06607105 0.015349546 0.13822336 0.07080754
000210 f0 a6 41 3d 3e cc 3f 3d e8 53 d3 3c 9d dc bf 3d
       0.047278345 0.04682564 0.025796846 0.093682505
000220 36 6b c9 3d 13 7d e3 bc 7d 0a c8 bc 33 c6 f6 bc
       0.09834902 -0.027769601 -0.024419064 -0.030123806
000230 2d de b5 3b 56 63 3a bc 8c 48 6b 3d 6c b0 59 3b
       0.005550167 -0.011376223 0.057442233 0.0033216728
000240 b9 11 3e 3d 40 8b eb 3d e4 b9 01 3e 23 e3 fd 3c
       0.04640362 0.11501169 0.12668568 0.030992096
000250 95 f4 b0 3d 75 d9 d7 3d 82 64 14 3d 77 48 d0 bc
       0.086404 0.105395235 0.036228664 -0.025425179
000260 43 d1 2e be c1 3a be bd 15 b8 a6 bd 69 bf 77 3c
       -0.17072015 -0.0928855 -0.081405796 0.015121319
000270 7d 85 7d 3c 36 87 86 3d e9 16 57 3d 49 b3 e0 3c
       0.015473721 0.06568758 0.052512083 0.02742924
000280 60 95 c2 3d 25 c5 b6 bb f9 42 c9 3d 7b b6 3c 3e
       0.09501147 -0.0055777007 0.09827227 0.18428986
000290 6d a0 b1 bc 33 c0 a1 bd f0 28 c4 bd 70 87 d2 bc
       -0.021682942 -0.07897987 -0.09578121 -0.025699347
0002a0 53 79 98 3d 98 36 17 3d 56 1a ed bc 4c 77 96 bd
       0.07445016 0.0369173 -0.028943222 -0.07346973
0002b0 cc 06 9c 3c c5 19 62 3d 17 d5 9a bc 6d a4 66 bd
       0.01904621 0.055200357 -0.018900437 -0.056309152
0002c0 4a 1e d5 bc c3 66 15 be 49 7c 49 be 7d 73 69 be
       -0.02601542 -0.14589982 -0.19676317 -0.22797962
0002d0 f4 9e cf bd 1d 16 bc bd 4d 39 12 be 10 7a a6 be
       -0.1013774 -0.09183905 -0.14279671 -0.32515
0002e0 b6 76 84 be 45 c8 b0 be 26 0b a3 be e0 7e 96 be
       -0.2587182 -0.34527794 -0.31844443 -0.29393673
0002f0 2b dc b7 be 1c cb 43 be 76 76 c7 be bb ae a1 be
       -0.35910162 -0.19120449 -0.38957566 -0.3157862
000300 93 70 8e be 4a b7 a3 be 83 a5 41 be c8 bf 10 be
       -0.27820262 -0.31975776 -0.18910794 -0.14135659
000310 62 6f 31 be df 63 17 be 73 68 14 be 8e fe 3b 3d
       -0.17327645 -0.14784192 -0.14492969 0.04589706
000320 ab bf af 3d 10 b7 9f 3d 22 17 ed ba 31 09 4e bd
       0.0858148 0.07798588 -0.0018088559 -0.050301734
000330 e2 c7 ef bd f0 17 ae 3c b9 c4 2e bd 28 57 04 bd
       -0.117080465 0.021251649 -0.042668078 -0.03230968
000340 1d 20 43 3c f9 ab 8c bd cb 59 97 3d 60 6a ee 3d
       0.011909512 -0.06868739 0.073901735 0.11641383
000350 c5 e2 92 3b 3d c9 49 bb d9 8d d9 bb f9 68 02 3e
       0.0044825994 -0.0030790113 -0.006639224 0.12735356
000360 c4 24 b9 3d e6 f0 c2 3a 11 6f 0f bd ea 5f 0e 3d
       0.090402156 0.0014872819 -0.03501803 0.03475944
000370 5f 21 91 3b a1 f0 1b 3e cc f1 92 3d 93 d8 2a 3d
       0.004429027 0.15228511 0.07175025 0.041710448
000380 5d 2d 0c 3e c6 32 28 be 9e c8 03 be 52 a3 17 be
       0.1368918 -0.16425619 -0.12869498 -0.14808396
000390 f5 16 fd bd bd 7d 0d bd 4f ae e9 bd e4 f2 1b be
       -0.12357894 -0.03454374 -0.114102 -0.15229374
0003a0 24 aa f4 bd ed 5e 9e bd 74 51 9c 3a 96 6d 90 bb
       -0.11946514 -0.077329494 0.001192613 -0.004407595
0003b0 11 93 77 bd d4 5d b3 bc da 12 a5 bc 23 be e2 bb
       -0.060442988 -0.021895327 -0.02015059 -0.0069196387
0003c0 35 1b 0b 3e ac ff 45 3d a4 07 72 bd 67 53 93 bd
       0.13584597 0.04833953 -0.059089318 -0.07193642
0003d0 8f ec 2d bd 29 0d 14 3e f0 0b 11 3e 34 ef 95 3b
       -0.042461928 0.14458145 0.1416471 0.0045756344
0003e0 df 3e 45 bd 36 e7 39 3c e3 6f 67 3d 07 70 88 3c
       -0.04815566 0.011346629 0.056503188 0.016654981
0003f0 c2 87 38 bd 6f 91 1c 3d 71 f1 a9 3d 05 b4 c9 3d
       -0.045051344 0.038224634 0.082980044 0.09848789

conv2.bias f4 [16]
000000 27 45 41 3d 5f d6 20 be ff d3 8d 3e 07 2e 7b 3d
       0.04718509 -0.15706776 0.27700803 0.061323192
000010 a7 71 e2 bc ac 60 0c 3e 48 a9 49 be f5 75 33 3d
       -0.027642084 0.13708752 -0.19693482 0.043813664
000020 5a 62 82 be 02 54 0a bd e5 9c 91 bc 16 8e 87 bc
       -0.2546566 -0.033771522 -0.017775008 -0.016547244
000030 84 8e 96 bd 19 12 97 be 22 17 39 3c 83 d1 a8 bd
       -0.073514014 -0.29505995 0.011297019 -0.08243086

fc1.weight f4 [120, 400]
000000 8a 46 97 bd fe 65 a9 bd c4 ca d6 3c a9 dd 35 3d
       -0.07386501 -0.082714066 0.026219733 0.044400845
000010 52 39 c6 bd 7d 2d ac 3d 43 5d a8 38 f1 af 81 bd
       -0.09678902 0.08407114 8.0282356e-05 -0.06332386
000020 a2 a0 a5 3c dd 92 11 3d cf 16 c0 3d 96 2e f8 3d
       0.020218197 0.03554045 0.093793504 0.121182606
000030 c5 2a 78 3d f8 bc a9 3c be 24 84 bd a6 53 18 3e
       0.060587663 0.02071999 -0.064523205 0.1487566
000040 8e 59 16 3e 25 c2 12 3d 6b 3d 88 3d ce 32 11 3d
       0.146826 0.035829682 0.066523395 0.03544884
000050 18 9a 57 3a e6 d1 29 3d 8f 95 97 3d 26 59 c3 3d
       0.0008224561 0.04145994 0.07401573 0.09538488
000060 59 f2 92 bd a7 98 2c 3e b8 e4 67 bd 20 63 07 3d
       -0.071751304 0.16855107 -0.056614608 0.033053517
000070 cd d8 99 3d 9c 01 e3 bc 5a 19 ca b9 b4 83 11 3c
       0.075120546 -0.027710728 -0.0003854733 0.008881498
000080 78 67 8a 3b 62 95 07 3e 3f 48 5f 3d 78 21 e6 bd
       0.00422376 0.13240579 0.05451226 -0.112368524
000090 19 0b 22 be 23 d4 40 be ee 25 76 3d 5f 25 aa 3d
       -0.15824546 -0.18830924 0.060094766 0.08307909
0000a0 93 d9 89 3d 2f e5 19 3d 9c 2e 4c be 2d 86 5a bd
       0.06730952 0.037572082 -0.19939655 -0.053350616
0000b0 89 d5 39 3d cc a7 6d bb f2 3b f5 bb 98 96 46 bd
       0.04536966 -0.0036263345 -0.0074839527 -0.04848346
0000c0 76 40 78 bc c0 60 f8 3a ac c1 1b 3e d8 89 18 3c
       -0.015152087 0.0018949732 0.15210599 0.009310208
0000d0 cc 6a b6 3c ef 29 4d 3d be 8d e5 3c d9 23 a9 3d
       0.022267722 0.05008882 0.02802169 0.082587905
0000e0 b7 a3 05 3d 96 a2 15 bc cc 01 99 3b 09 93 83 3c
       0.032626834 -0.009133002 0.0046694037 0.016061323
0000f0 f3 8e a6 bd 91 76 d3 bd 9d 8c c0 bd 8d 28 ed 3b
       -0.08132734 -0.10325349 -0.0940182 0.0072375
000100 28 85 18 3d 6f fd 79 3c 69 26 2a bd e5 40 ea bd
       0.037236363 0.015258177 -0.041540537 -0.11438159
000110 f0 55 ad bd a4 fc 7a 3d 9f 46 52 3e 45 32 90 3d
       -0.08463657 0.061276093 0.20534752 0.07040838
000120 98 0c 02 be d7 52 8c bc 5e 12 a8 3d 88 87 1d be
       -0.12700117 -0.017129345 0.08206628 -0.15383732
000130 4b 76 c5 bd 31 cd b0 bd 6c bd 5d bd 41 fe e3 bd
       -0.09641703 -0.08632887 -0.054135725 -0.111324795
000140 0e f4 f2 3d cd 3f 93 3d a4 8e 3e bd a0 19 da bd
       0.11862956 0.071899034 -0.04652275 -0.10649419
000150 ec 4f 15 be 69 a8 f6 bb b3 6d e7 bb 63 8c bd bd
       -0.14581269 -0.0075274003 -0.0070626377 -0.09255292
000160 4c e3 7d 3c 7f ea 7b bc 87 fb be 3d 36 7a b7 3d
       0.015496086 -0.015375732 0.09325319 0.08958857
000170 ba f5 34 bd c6 76 04 3d 6c 34 6d 3d 6f 4d 7a 3d
       -0.044179656 0.032339834 0.05791132 0.061109003
000180 10 a4 d3 3d 77 e1 3e 3d 48 33 a1 3d 7d 52 4f 3d
       0.10334027 0.04660174 0.07871109 0.050615776
000190 38 24 22 bd 97 05 d9 bc 05 09 7e 3d f4 82 2f bc
       -0.039585322 -0.026491923 0.06202032 -0.010712374
0001a0 41 54 54 bd 86 b7 8d bd d1 6b e3 bc ed d6 20 3d
       -0.051838163 -0.0691977 -0.027761372 0.03926747
0001b0 0f 50 13 3d cc e4 e6 3c 99 5a d7 bc b8 09 cf bd
       0.03596502 0.02818527 -0.026288318 -0.101092756
0001c0 df 09 d3 bd 02 45 5b 3d 1a e8 a4 3d 12 af f0 bc
       -0.10304617 0.053532608 0.08052082 -0.029380355
0001d0 8a 71 ec bd 6c 70 ba bd c2 dc 2d bc 8b 57 51 3e
       -0.11545093 -0.09103474 -0.010611715 0.20443551
0001e0 8a 46 11 b8 18 e2 9d 3c f2 86 87 bd c5 fc 8c bc
       -3.463639e-05 0.019272849 -0.06617536 -0.017210374
0001f0 49 70 1b 3e 9a fa c3 bb 7f 33 ec bc ed 33 9c 3c
       0.15179552 -0.005980802 -0.028833149 0.019067729
000200 6e 4c ad bd 39 47 b0 bc bb 8e a5 bd a3 31 12 3d
       -0.084618434 -0.021518337 -0.08083864 0.03569187
000210 aa c3 46 3d 4e dc 7a 3c 8c 51 9f bd d8 16 a3 bc
       0.048526444 0.015311314 -0.07779226 -0.019908354
000220 ba 2d 4d 39 3f 24 11 3d c6 03 39 bc b9 6f 09 bd
       0.00019567358 0.035434958 -0.011292404 -0.033553813
000230 c1 3c 16 bd bd a7 1d bd ac 47 af b9 b0 d1 9a 3d
       -0.036679033 -0.038490046 -0.00033432 0.07559526
000240 c5 3d 77 bb 79 cd 16 be 0b d9 f2 bb 48 0f d1 bc
       -0.0037726026 -0.14726819 -0.0074111274 -0.025519982
000250 bd eb 2d bd 69 af c2 bd 02 78 ff 3d 32 76 cf 3d
       -0.042461146 -0.09506113 0.124740615 0.10129966
000260 e1 1b 88 3d c3 81 c7 bc 39 88 40 3d 42 50 ee bc
       0.066459425 -0.024353867 0.047004912 -0.029091004
000270 43 a7 03 3d 8c b6 b6 3b 11 71 53 bd fa 7a 6b bd
       0.032141935 0.0055759605 -0.0516215 -0.057490326
000280 3a e6 ac bb a2 9c 8a bd 28 9d 3d bd 22 28 4c bb
       -0.0052764686 -0.067681566 -0.046292454 -0.003115185
000290 ac 89 3f 3b bb 8e 96 bd 74 b1 29 3c 98 b5 ff 3c
       0.0029226346 -0.073514424 0.0103572495 0.03121452
0002a0 ff 4f 3d 3d 8c 17 12 3c 31 6b 02 3e 65 df 6c 3d
       0.04621887 0.008916747 0.12736203 0.057830233
0002b0 8d a0 61 3d bd 9e 82 bd ac 28 e8 bd 53 4f 5d bd
       0.055084754 -0.06377933 -0.113358825 -0.054030728
0002c0 13 89 1c 3b f8 3f 5d 3c 59 ba 61 3d e5 f1 31 bc
       0.0023885414 0.013504021 0.055109356 -0.010860895
0002d0 e7 5a dd bd e5 a0 b4 3d d2 91 74 bd b8 17 80 bc
       -0.10808354 0.08819751 -0.059709378 -0.01563631
0002e0 4b f6 79 3a 61 fa 80 bd 17 6c 59 3d a5 de 4d b9
       0.00095352967 -0.06297756 0.053081598 -0.00019633265
0002f0 95 0e 0c bd ac 1e 8b bc 86 5b 2e 3d 86 1c 45 3d
       -0.034193594 -0.016982399 0.042567752 0.048122905
000300 14 e9 85 3c 05 03 f0 bc 2b 78 26 3d 9a 54 34 bd
       0.016346492 -0.029298315 0.040641945 -0.044025995
000310 9a 2f c9 bc 64 d7 88 3d d3 04 0c 3e ed 5e 1d 3e
       -0.024558831 0.066817075 0.13673715 0.15368243
000320 e5 d8 77 bc 7c af 88 3a f2 bd cd 3d 6b e0 86 3c
       -0.015127395 0.0010428275 0.10045995 0.016464433
000330 c6 e4 8e bd 28 56 38 3c f8 df dc 3c b4 9e d2 3d
       -0.06977229 0.01125101 0.026962265 0.102841765
000340 db 09 96 bc cd f6 ae bd 26 c5 ac bb 54 2e 89 3d
       -0.018315246 -0.08543167 -0.0052725254 0.066982895
000350 48 ec b5 bb 71 ca 19 3e ed 2c 42 bd 56 d2 88 bd
       -0.0055518486 0.15018632 -0.047406126 -0.066807434
000360 7e 16 b7 3d 3c da bc 3c 56 04 25 3e 30 e7 02 3e
       0.08939837 0.023053281 0.16114935 0.12783504
000370 77 e9 a8 bd b0 3e b6 3d a6 c6 ed 3b 56 e6 90 3c
       -0.08247655 0.088986754 0.0072563468 0.017687958
000380 e1 f4 cf 3d 20 ce db 3d 3c b0 2e bd ce ac 3e bd
       0.10154129 0.107326746 -0.04264854 -0.04655152
000390 26 df 01 3e b6 f5 c5 bc e4 dd 42 bd ac 10 9d 3d
       0.1268278 -0.024165016 -0.047574893 0.076691955
0003a0 27 15 7d bd 77 8c 5e bd 63 0a 68 bd 72 e3 82 bd
       -0.06178775 -0.054333176 -0.05665053 -0.06391038
0003b0 42 e6 39 3d 8f 54 5b bd 7b 14 a8 bd 75 3a 92 bd
       0.045385607 -0.05354744 -0.08207031 -0.07140056
0003c0 15 36 2e 3b 88 ec fb 3c ae 7f 90 3d 33 50 2f 3e
       0.0026582528 0.030752435 0.07055603 0.17120437
0003d0 72 5c c4 3d 9f 0b 51 bd 67 94 8d 3d 88 fc b7 bc
       0.09587945 -0.051036473 0.06913071 -0.022459283
0003e0 aa 0e 26 3e 59 39 89 3d 3e 8f 47 3b 03 35 9c bc
       0.16216531 0.06700391 0.003045037 -0.019068247
0003f0 47 d9 bf 3c 6f d1 3d 3c 0c 71 8e 3d 85 9a 3e bd
       0.023419036 0.011585577 0.06955156 -0.04653408

fc1.bias f4 [120]
000000 9b 3e 6c 3d b8 2d c8 3d dd a8 8a 3d 7b 2e 07 3e
       0.057676893 0.09774345 0.06770489 0.13201325
000010 d2 b1 f2 bd 6b 8d 80 3e dc 8e 85 3d 9d df c4 bd
       -0.11850323 0.25107893 0.06521389 -0.09612963
000020 9c 86 2e 3e b5 c8 00 bc c0 26 2d bc 65 9c a7 bc
       0.17043537 -0.007860352 -0.010568321 -0.020460317
000030 66 bc 38 bc 64 24 20 be 3a 27 56 bc d3 f2 b1 3c
       -0.011275386 -0.15638882 -0.013070876 0.021722233
000040 e1 75 bd 3d 6f 25 09 3d 84 46 09 bd 51 3d 0f 3d
       0.09250999 0.033482965 -0.033514515 0.034970585
000050 44 9b 87 3b 40 de 93 bc c1 47 eb bc c4 46 fe 3d
       0.004138382 -0.018050313 -0.028720738 0.12415841
000060 e7 a2 04 3e a1 e1 a6 3e 6c 03 66 be 81 78 48 bc
       0.12952767 0.32594016 -0.22462243 -0.012235762
000070 2d fb 2d be 09 5b 13 3e a6 3c 02 bd 2c c4 2b 3e
       -0.16990347 0.14390196 -0.03179612 0.16774052
000080 e5 d9 45 3a d8 2c 6a bb ba 83 f8 bd c9 8b 3b bc
       0.00075474224 -0.0035732295 -0.121345 -0.011446902
000090 07 5c 7b bd 8a 95 32 be f9 e2 58 3e 51 db 30 3e
       -0.06136706 -0.17439857 0.21180333 0.17271163
0000a0 28 54 c5 bd 31 4c fa bc 67 78 89 3e 5f 8b 59 3c
       -0.09635192 -0.030553909 0.26849672 0.013277858
0000b0 ad 7c cd 3c d8 ec c0 3c 3f 97 d7 3c e0 bd 13 bd
       0.025083864 0.023550436 0.026317237 -0.03606975
0000c0 16 83 82 3e 10 4b c2 3c 79 93 af 3c eb e6 3e 3e
       0.25490636 0.023717433 0.021432625 0.18642776
0000d0 51 46 b8 bd b2 cd 05 3e eb 70 e3 bd 7f 03 5e bd
       -0.08997787 0.13066748 -0.11105522 -0.054202553
0000e0 b1 a2 ac bc aa 39 25 bd c0 e1 8c 3e 3c 75 8c bd
       -0.021073671 -0.040338196 0.27515984 -0.06858298
0000f0 01 46 4a 3d 3d b9 cf bc ed 60 42 bd 7c 01 51 3c
       0.049383167 -0.025356883 -0.047455717 0.012756702
000100 52 b1 4e 3e b1 11 15 3e 67 58 0c 3d dc 88 84 bd
       0.2018483 0.1455753 0.034263995 -0.06471416
000110 78 b4 03 bc 8a 6b 01 bd 6c bb 4a bd 9e a6 70 be
       -0.008038633 -0.031596698 -0.049495146 -0.2350106
000120 e9 b2 1f bd 24 5a b8 3e ac 8d 60 3b ee 62 3e be
       -0.03898898 0.36006272 0.003426413 -0.18592426
000130 69 ac 92 3c 2f 0e 07 3e f1 54 4d be 33 be 9b 3d
       0.017904477 0.13189004 -0.20051934 0.07604637
000140 84 46 21 be 2a c2 4e bd d9 ac 19 be de 28 23 bd
       -0.15749556 -0.050478138 -0.15007342 -0.039833896
000150 85 b3 a3 bc 68 8f d2 bc b5 e4 c7 3d 9c d7 47 be
       -0.019983063 -0.025703147 0.09760419 -0.19515842
000160 62 99 3c bd c8 66 20 bd 20 d1 46 be ae bb 13 bd
       -0.046044715 -0.03916052 -0.19415712 -0.036067657
000170 35 1e cd 3c 43 b6 79 3d 68 2a 7d 3e 8a 6b f1 3d
       0.025038818 0.060964834 0.24723208 0.117880896
000180 73 7d 77 bd 1b 84 61 3e 49 4e 6e bd 46 8d 4f be
       -0.060422372 0.2202305 -0.058180127 -0.20268735
000190 36 c6 95 3d 91 3e 95 3e 7d d8 a8 bc ff 16 50 bc
       0.07313196 0.29149297 -0.020611042 -0.012700795
0001a0 3f e4 0b 3e 64 42 56 bd 27 83 a8 3d a5 4c 0d bd
       0.13661288 -0.05230941 0.0822814 -0.034496922
0001b0 70 f4 1e be ff ed a3 bc ea ea 3a 3e c7 7a 56 bc
       -0.15522933 -0.020010946 0.18253675 -0.013090796
0001c0 0f 8d 96 bc a6 03 30 bd d2 21 8b be c6 c1 93 3e
       -0.018377809 -0.04297223 -0.2717424 0.28858775
0001d0 30 22 1e be 2d d5 e6 bd 09 fa 47 bd ed 0c 5c bc
       -0.15442729 -0.11271129 -0.048822436 -0.013430816

fc2.weight f4 [84, 120]
000000 b1 4a 90 bc 55 00 41 bd c9 a3 b2 bd cc 45 ec 3c
       -0.01761374 -0.047119457 -0.08722646 0.028841875
000010 41 8a cb 3d 59 57 f6 bc 38 c5 98 3d b5 06 18 be
       0.09938479 -0.030070947 0.074594915 -0.14846309
000020 6f bd 02 be 83 72 13 3d fd f6 0f be 82 c9 2e bc
       -0.12767576 0.03599788 -0.14059062 -0.01066816
000030 5f 73 bd 3b 75 23 2b bd 68 9d af bc e3 08 f2 bb
       0.0057815756 -0.04178186 -0.021437362 -0.0073863133
000040 9c bc c1 3c c7 cc af 3d c0 b0 58 3d 33 43 47 be
       0.023649506 0.0858398 0.052902937 -0.19459228
000050 c2 ce a2 bb 5a 9a f9 bb 6f 59 90 bc 24 8a d1 bd
       -0.004968495 -0.007617277 -0.01762077 -0.10231426
000060 91 e7 58 3d a9 da 86 3d c5 01 0a 3e 47 31 5e bd
       0.052955214 0.06584675 0.13477238 -0.054246213
000070 47 a0 ae bc 0e 6a 20 3e 53 2e 1a 3e 2e 5a 89 3d
       -0.02131666 0.15665457 0.15056734 0.067066535
000080 73 dc 07 3d cb 9d b3 bc 36 b0 8b bd 1d 83 bc 3d
       0.03316922 -0.021925827 -0.06820719 0.092046954
000090 90 91 f4 3c d9 1c 6b 3c 2d 8b bb 3c 9b c8 d0 bd
       0.029854566 0.01435014 0.022893513 -0.101945125
0000a0 6c 4b aa 3d 84 ec 88 3d 63 40 1d 3e 7f 99 25 3d
       0.08315167 0.06685737 0.15356593 0.04042959
0000b0 eb e0 d5 bc 84 4f 16 3d 21 63 87 3d 8e 72 73 bd
       -0.026108226 0.036696926 0.06610704 -0.05943542
0000c0 f4 f7 7e 3d a6 3c a3 bd f9 2e 23 3e b7 90 fa bc
       0.062248185 -0.07970552 0.15935887 -0.030586584
0000d0 7e eb e4 3d 9f 25 05 3c aa ab 9a 3b 06 a4 04 3d
       0.11177729 0.008126645 0.004720171 0.032382987
0000e0 b6 26 8b bc 84 12 92 3b 3e 90 9c be 3f 7f 28 bd
       -0.016986232 0.0044577736 -0.30578798 -0.041136976
0000f0 34 78 ca 3d 67 03 9e 3d 81 ee 4c bd a8 9f 60 3c
       0.09886208 0.07715493 -0.050032143 0.01370994
000100 58 e0 89 3c 7f 8e b2 bc 3f 24 a0 be aa 77 75 bd
       0.016830608 -0.021796463 -0.31277654 -0.059928574
000110 42 5c 11 3d 31 f8 5f 3c e9 9b 44 be cd 80 fb 3d
       0.035488375 0.013670013 -0.192001 0.12280426
000120 62 57 29 3d b0 bd c6 bd 0e d1 c6 3c 14 56 c1 bd
       0.0413431 -0.09704149 0.024269607 -0.09440246
000130 7e 15 93 3d 92 b9 11 be c9 a8 11 bc c6 7c 5e be
       0.07181834 -0.14230946 -0.008890339 -0.21727285
000140 96 d1 12 3e 5b 69 7d 3b de 19 ee 3d ee b2 34 3d
       0.14337763 0.0038667533 0.116260275 0.044115953
000150 51 85 a5 3d eb be 7f bc ba 72 d1 bd 22 c6 ba 3d
       0.08082069 -0.015609483 -0.102269605 0.09119822
000160 71 05 5b 3d 96 07 02 3d 4e fb 33 3e 0b 01 b1 bd
       0.053471986 0.031745516 0.17576334 -0.08642777
000170 8d 28 c7 bc 9c b1 3d be a4 55 24 bd fe 43 e6 3d
       -0.024311328 -0.18524784 -0.040120736 0.11243437
000180 13 f1 90 bc f4 11 45 3d 0d 83 9c 3d 75 f1 15 3e
       -0.017693078 0.048112825 0.076421835 0.1464289
000190 c7 1c bd bd e4 19 99 bd a2 c7 80 3d c3 ae 82 3d
       -0.092340045 -0.07475641 0.06288077 0.063809894
0001a0 da ca de bc 72 6e 57 bd f5 26 b4 3d a8 2a 91 3d
       -0.027196337 -0.052595563 0.08796493 0.07088214
0001b0 b8 8b 6d 3d 80 84 89 3b 1f 73 a0 be 02 7d ae bd
       0.057994574 0.0041967034 -0.3133783 -0.08519937
0001c0 fe e1 69 bd 07 6d 7a 3d a7 c1 d3 3b df 32 02 3e
       -0.05710029 0.061139133 0.006462294 0.12714718
0001d0 20 dd 04 3d fc c7 b7 bd 8b ff a8 3d a2 ff c9 3d
       0.032437444 -0.08973691 0.08251866 0.09863211
0001e0 e1 c2 2d 3d b6 35 c7 bd 4b c0 bd bd b6 a4 5a bd
       0.04242218 -0.097270414 -0.092651926 -0.053379737
0001f0 60 3b 5f bd 46 8c 43 3d 13 6a 41 bd 54 dc d6 3c
       -0.054499984 0.047741197 -0.0472203 0.026228108
000200 3b 39 e8 3c 29 18 6b 3d a0 23 af bc 0a 68 23 3d
       0.028347602 0.057396088 -0.021379292 0.03989414
000210 f3 f6 5c bd b1 68 2d bc 21 33 0f bd 75 ed 89 bd
       -0.053946447 -0.010584042 -0.03496087 -0.067347445
000220 91 ae bf bc d6 de 63 bd 51 f8 a7 3d 92 8e 15 3c
       -0.02339867 -0.055632435 0.082016595 0.00912823
000230 88 97 bc 3c e9 9a 57 bd 27 cd 76 3d b8 37 8e bd
       0.023021474 -0.05263797 0.060254242 -0.06944221
000240 92 1b 24 bd 82 c3 e3 bc 02 ee 75 bd 8e b7 16 3d
       -0.040065356 -0.027803186 -0.060041435 0.036796145
000250 0a 13 46 bd 6f 74 e0 bc b0 3b dc bd 4f 68 ea bb
       -0.048358 -0.02739927 -0.10753572 -0.007153548
000260 65 9b 8b bd 51 7b b3 bb 4b 4f e5 bd 63 ec 2d 3c
       -0.068167485 -0.005477347 -0.111967646 0.010615441
000270 cc bd 84 bd 53 22 24 3d 29 8e 55 bd 7e ed 32 3b
       -0.064815134 0.040071797 -0.052137528 0.00273022
000280 9a cf 99 bd 58 06 71 bd 43 97 a0 bd 7d 8d 74 3d
       -0.075103 -0.05884394 -0.07841351 0.059705246
000290 39 21 59 bd 73 a1 fe bc 12 5e 4a bc 9d af 01 bc
       -0.0530102 -0.031082844 -0.01235153 -0.007915405
0002a0 fc 9c 3d bd 45 7e 86 3d df 2d cb ba 90 e1 70 3d
       -0.04629229 0.06567053 -0.0015501342 0.058808863
0002b0 9b 24 d7 bd 89 f3 78 bd 01 c3 88 bd 10 32 68 bd
       -0.10505029 -0.06077913 -0.06677819 -0.05668837
0002c0 ea ad 84 bb 45 a2 a9 3b b4 98 69 3c ef 0d 42 bc
       -0.0040490525 0.0051768147 0.014257599 -0.011844142
0002d0 c7 38 a2 3d d2 c9 09 bc b2 07 98 bd be 9f 2c 3d
       0.07920986 -0.008409934 -0.07423343 0.04214453
0002e0 86 38 9f bd 6e 7b 22 3c 08 93 cb bc ee c6 a2 3d
       -0.07774453 0.009917123 -0.024850383 0.07948099
0002f0 7b 0f 93 3d f0 ed aa 3d bb eb 63 bd f8 e2 15 bd
       0.07180687 0.08346164 -0.055644732 -0.036593407
000300 47 0f 81 bd 53 c9 b0 bc 4a c1 b7 3d dd 36 e3 bd
       -0.06301742 -0.021580374 0.08972414 -0.11094449
000310 a1 e6 bc bc 9c e2 a7 bd 92 2f 65 bd 52 15 78 3c
       -0.023059191 -0.08197519 -0.05595357 0.015141802
000320 81 06 b4 bd d7 b6 d4 3c 19 ba 4e 3d 6b fd a0 3c
       -0.08790303 0.025966091 0.050470445 0.01965209
000330 7a 9b 8a bd 98 f8 a5 bc c6 c6 79 bd 9c 78 b2 bd
       -0.06767936 -0.02026014 -0.06098058 -0.08714411
000340 f7 e5 82 3d 70 fd 2b 3c 73 22 bd 3c 26 a3 99 bd
       0.063915186 0.010497436 0.023087716 -0.07501821
000350 31 97 87 bd 62 6c 78 bd fb 52 fd bc 1d d2 d9 3c
       -0.06620634 -0.060650237 -0.030923357 0.026589448
000360 10 65 a2 bd 05 44 a3 3c bd 6c 98 bd 4c a8 eb bd
       -0.079294324 0.019929895 -0.07442615 -0.115067095
000370 d5 a1 dc bb 97 40 48 3d 2b 33 8f bd 77 69 a7 bb
       -0.006733159 0.048889723 -0.069921814 -0.005109008
000380 c7 96 de bd 3e 60 31 bd 46 78 db bd 19 96 87 bd
       -0.10868602 -0.043304674 -0.107163 -0.06620426
000390 dd 4a 56 bd f2 88 d5 bc 17 dc 50 3d 79 23 3c 3d
       -0.05231749 -0.026066277 0.050991144 0.045932267
0003a0 ed 00 9b bd d3 f8 8a 3d f1 1d 15 3b 6d 17 65 bd
       -0.07568536 0.06785741 0.0022753442 -0.055930544
0003b0 a4 28 ad bc 38 79 4d bd 9a 8d 20 3d 30 93 70 bd
       -0.021137543 -0.05016443 0.03919754 -0.05873412
0003c0 a7 33 22 3e 00 c7 25 3e 55 ff 39 3e a3 b3 48 bd
       0.15840016 0.16189194 0.18163808 -0.04899944
0003d0 95 ab 3f 3d e9 4a 36 3e 27 9a f8 bd 2c 28 03 be
       0.046794493 0.17802013 -0.12138777 -0.12808293
0003e0 04 9f d1 3d 15 27 e7 3b 86 17 60 3d 4c 42 2d bc
       0.10235408 0.0070542195 0.054709934 -0.010574888
0003f0 9c 74 4d bd 09 07 ed 3c e4 ff cc 3d e8 be d0 bc
       -0.050160035 0.028934019 0.10009745 -0.025481656

fc2.bias f4 [84]
000000 f1 24 89 be 1c 80 d2 ba c7 3d 5f bd 36 1b 4b be
       -0.26785997 -0.0016059908 -0.054502275 -0.19834599
000010 26 2b 02 bd 2a a8 89 3d c7 b8 04 bd 55 f3 0c 3e
       -0.03177943 0.06721528 -0.03240278 0.13764699
000020 9a 69 a1 3c 3b f2 0c 3e db 8b 1a bd ed e7 9c 3e
       0.019703675 0.13764279 -0.037731033 0.30645695
000030 0b 85 d8 bc 2d 0e 57 bd f3 97 3e be e1 f7 7d bd
       -0.026430627 -0.052503753 -0.18612652 -0.062003974
000040 fa 68 76 3d 8c 4f 67 3e f9 69 2c 3e fd f4 8b 3e
       0.060158707 0.22588938 0.168373 0.2733535
000050 e0 14 75 3e 28 a7 cb 3d 08 f9 33 3d db a6 10 3e
       0.23933744 0.09943992 0.043938667 0.1412615
000060 42 d0 5e 3c e8 1b 22 3e 07 6a 5c 3e e0 73 dc 3e
       0.013599457 0.15830958 0.21524821 0.43057156
000070 31 73 ae 3d 00 4e 15 be da 2a b3 3d dd 42 15 3c
       0.08518065 -0.14580536 0.08748408 0.00911018
000080 e7 27 d6 3d db 2c 4d 3d 75 e6 ba bd d1 0b bf bd
       0.104568295 0.050091606 -0.091259874 -0.09328426
000090 f5 01 64 be cf ed 81 be b8 e8 0d 3b c5 59 8a 3e
       -0.22266372 -0.25376746 0.0021653604 0.27021614
0000a0 4c 7e c4 3e 17 56 b5 be 33 d5 2a be e7 9f 84 bd
       0.38377607 -0.35417244 -0.16682892 -0.064758115
0000b0 cd 88 1d 3e 0c a4 5a bd d9 ce 14 3d d2 2d e9 3c
       0.15384217 -0.053379104 0.036330078 0.028464232
0000c0 c0 3c b0 bd d1 bf 21 be 02 b6 01 bd 3a c9 bf 3d
       -0.08605337 -0.15795828 -0.031667717 0.09364553
0000d0 a6 6f 33 be a6 ec dd bd ae e7 3c 3d f5 7f a3 bd
       -0.17523059 -0.10836153 0.046119384 -0.0798339
0000e0 38 e6 70 3e 29 82 d2 3b 34 4b 3d be e6 c2 45 3e
       0.23525321 0.0064242077 -0.18485719 0.19312629
0000f0 ef 72 0e bd b7 1d d3 bd 10 86 e7 3d f4 6d d1 bd
       -0.034777578 -0.10308402 0.11304867 -0.1022605
000100 8e 03 74 be 9d b4 49 bd 3e 27 cb 3d 9e 49 88 be
       -0.23829481 -0.049244512 0.09919594 -0.26618665
000110 43 d1 7a bd e0 86 42 3d 6a ce 3e 3e d1 a5 8e bd
       -0.061234724 0.047491908 0.18633428 -0.06965221
000120 e0 7c 7c bd 3d 1f 89 3d 62 88 3a be 8f 50 69 3d
       -0.061642528 0.06695411 -0.18216088 0.056961592
000130 f1 de 44 bd cd a0 80 3d 88 6b 65 bd d7 da 4f bc
       -0.048064176 0.0628067 -0.056010753 -0.012686453
000140 39 14 cb bc d5 54 e0 3d 76 e9 24 bc 6d 17 48 bd
       -0.024789916 0.109536804 -0.010065427 -0.048850466

fc3.weight f4 [21, 84]
000000 17 cc 5e bd 38 90 81 3c 9e 1e be be 17 11 21 be
       -0.054393854 0.01581584 -0.37132734 -0.15729176
000010 25 14 4f bd da d0 54 be fb 0d 0e be 34 24 9f 3d
       -0.05055632 -0.20782796 -0.1387252 0.07770577
000020 35 2b 8f bd 46 a0 a3 bb 11 33 c7 bd a7 cc f9 bd
       -0.06990663 -0.0049934713 -0.09726537 -0.121972375
000030 e9 1f f6 3d f0 42 eb 3d 7f 7a 50 be 6e d5 87 3d
       0.12017805 0.11487377 -0.20359229 0.06632505
000040 08 3e 00 3e 4f 22 0a 3e ab f0 44 bd 2e 24 12 be
       0.12523663 0.1348965 -0.04808108 -0.14271614
000050 ea 83 d0 3d fd 68 22 3e 97 49 11 3d 9f 38 e7 bc
       0.101814106 0.15860362 0.03547057 -0.028225241
000060 22 62 9e be 0a 35 3d 3c 4a ee 85 3d d2 eb 07 be
       -0.30934244 0.01154829 0.06539591 -0.13273552
000070 88 0b 68 be 44 ff 96 3b 0d d9 a1 bd b5 d6 14 be
       -0.22660649 0.0046080668 -0.07902727 -0.14535029
000080 a9 42 3e 3d 3e 7f 0a be 6d 92 31 3d 20 a1 65 bd
       0.04645029 -0.13525102 0.043352533 -0.056061864
000090 ff 61 09 be 6c f6 12 be 81 d2 1d bd 33 25 8e 3d
       -0.13416289 -0.14351815 -0.03853083 0.06940689
0000a0 60 09 c0 bc b9 62 1c 3e 40 b6 2d be ed cd 87 bd
       -0.02344197 0.15272035 -0.16964054 -0.06631074
0000b0 56 4a 14 3e 8f 8d a3 be cc 6c 1c 3d 29 54 13 3d
       0.14481482 -0.31943938 0.038189694 0.035968933
0000c0 bb 8b 58 bd 84 ad b9 bc e5 14 49 3e 2e f4 49 bd
       -0.052867632 -0.022665747 0.19636877 -0.049305134
0000d0 de c7 a8 3c 9a 0c 04 3e f0 7f 1f 3e 46 b2 1f be
       0.020603117 0.12895432 0.15576148 -0.1559535
0000e0 23 72 20 be 51 40 ae bd b9 92 af bc b8 5c 15 bc
       -0.1566854 -0.08508361 -0.021432268 -0.009116344
0000f0 77 f5 da 3d 8d d8 4b be 2a 43 f9 bd b4 97 94 bd
       0.1069135 -0.19906826 -0.12171014 -0.072554976
000100 70 89 fe bd e9 c9 e2 3b 48 a3 6d be d8 70 eb bc
       -0.12428558 0.006921042 -0.23206818 -0.028740332
000110 67 66 e7 3c af fb da 3b 75 bc f9 3b 58 d2 88 bd
       0.028247071 0.006682835 0.007621343 -0.06680745
000120 62 a2 58 bd 06 be 17 3d 20 14 e1 3d 9c 42 1d 3e
       -0.052889235 0.037046455 0.10990167 0.1535744
000130 22 32 80 be 3b 65 45 be e3 24 df bd 45 e3 cb 3d
       -0.25038248 -0.19276898 -0.108957075 0.099554576
000140 ba 4b 33 bd 12 e1 b8 bc a9 b8 15 bd 9d 24 0d 3e
       -0.04377339 -0.02256826 -0.03655306 0.13783498
000150 eb 50 8e 3c cc 99 a1 bd ac 67 7b 3d 34 f2 28 be
       0.01737257 -0.078906626 0.061378166 -0.16498643
000160 b8 72 e0 3d bd 3a 3a 3e 18 f1 8f bd 17 b4 95 3d
       0.10959381 0.1818647 -0.07028407 0.0730974
000170 1b be ef 3c 8a b9 da 3d 14 d7 76 bd ca 0a 89 bc
       0.029265454 0.1067992 -0.06026371 -0.016728777
000180 37 4c 7d 3d 60 84 cd be d0 a7 79 3d 8d 41 22 be
       0.061840262 -0.40140057 0.060951054 -0.15845318
000190 2c 86 5b bd eb bb af bd 2e ba 1e be 5c 74 18 3e
       -0.053594753 -0.085807644 -0.1550071 0.14888138
0001a0 9a b5 20 be 7e e5 04 3e f8 99 a3 bd 80 66 db bd
       -0.15694275 0.1297817 -0.079883516 -0.1071291
0001b0 37 f4 53 be c0 11 a5 bc c3 f7 a3 3d 3a 17 8c bd
       -0.2069863 -0.020150065 0.08006241 -0.068403676
0001c0 15 60 6e 3d 7e f7 03 bc dd ad 40 3d e7 02 ce bd
       0.0581971 -0.008054612 0.04704081 -0.10059147
0001d0 60 d7 9e bd 2c 60 0f bd 4f 54 1a 3e 96 0b 06 3d
       -0.07755923 -0.035003826 0.15071224 0.032725893
0001e0 d6 17 5a bd 1d bb cb 3d 1b 14 3f bd 67 82 f6 3d
       -0.053245388 0.099477984 -0.046650033 0.12036591
0001f0 d2 bc 0e bc ac 23 80 3d 47 65 ac bd 96 07 05 bd
       -0.00871201 0.06256804 -0.084177546 -0.032477938
000200 9c 7b 25 3e b3 83 ab be 79 02 59 be 9a 58 f7 bb
       0.16160434 -0.33498916 -0.2119235 -0.007548404
000210 f5 53 46 bd 18 f3 ff bd a6 af 56 3d 99 75 82 3d
       -0.04841991 -0.12497538 0.052413605 0.06370086
000220 d4 30 0c be 69 cb b5 bc 49 2e c7 bd 85 f6 94 bd
       -0.13690501 -0.02219172 -0.09725625 -0.07273582
000230 cb 97 b5 bc 1b 27 9d bd 50 c8 0f 3e 89 34 8a 3c
       -0.022167107 -0.076734744 0.14041257 0.016870754
000240 fa c2 15 bb 1b 5f 05 3d 02 fd 50 bc 8a 96 ba 3d
       -0.002285181 0.032561403 -0.012755634 0.09110744
000250 e0 0b 0b 3e 8e f5 3e 3d 0e a9 2d be f9 3a 2f be
       0.13578749 0.046620898 -0.1695902 -0.1711234
000260 71 29 fe bd ee 97 4b bd e2 3c 0c 3e dc 93 ad 3c
       -0.12410248 -0.04970544 0.136951 0.021188669
000270 84 2a ec 3b 6d 3b 1c be 3f 0d 09 3e 35 02 6c be
       0.0072072167 -0.15257044 0.13383959 -0.23047717
000280 dd 5c 42 be d4 54 0b be 05 fc 1f 3e 0c 23 ab bd
       -0.18980737 -0.13606578 0.15623482 -0.08356294
000290 04 a7 5b be 9d b1 8b be f6 4d 8a 3c e8 c0 0d 3d
       -0.2145043 -0.27283946 0.016882878 0.034607798
0002a0 aa 01 a5 be 9b 95 8b 3c 4d 27 9c be 3a 78 c5 be
       -0.32227832 0.01703911 -0.30498734 -0.38568288
0002b0 e1 d8 17 be 4d 12 2e 3e 8e 3d ea bd d5 ec 3f bd
       -0.14828826 0.16999169 -0.11437522 -0.04685672
0002c0 63 a4 c7 bd d4 9d 08 be 95 8d e2 bd 2f 53 86 be
       -0.09748151 -0.13341457 -0.11062161 -0.2623534
0002d0 63 0e 76 be 39 a0 e5 bc 62 85 16 be 16 af 88 bc
       -0.24028926 -0.028030502 -0.14699319 -0.01668505
0002e0 4a 2a a9 3c 48 42 01 3d 69 08 f4 3d 8d 26 86 3d
       0.020650048 0.03155735 0.119156666 0.06550322
0002f0 17 3e 1b 3e ee e5 3d 3d 86 60 99 bd 37 a8 e8 bc
       0.15160404 0.046361856 -0.074891135 -0.028400524
000300 a2 6f 78 bd eb 85 68 3d 7f 20 a0 bd 91 68 09 3e
       -0.060653336 0.05676834 -0.07818698 0.13418795
000310 93 62 02 be 3d ea f2 bd fd d8 01 be 4f 10 9d bd
       -0.12732916 -0.11861084 -0.1268043 -0.07669126
000320 5b 5e 63 be 3c 84 1d 3e f8 cc 09 3e 16 a8 14 3d
       -0.22203963 0.15382475 0.13457096 0.03629311
000330 b3 0a 85 3e d1 19 10 be 39 b6 af bd a5 41 44 3c
       0.25984725 -0.14072348 -0.08579678 0.0119785415
000340 b1 91 07 be 90 2a b8 3c 4f ae d7 be 1c 36 d7 bd
       -0.1323917 0.022481233 -0.42125174 -0.105083674
000350 c8 06 e0 bd a3 11 14 be df a8 f6 bd 8a 24 3c bd
       -0.109387934 -0.14459853 -0.12043928 -0.045933284
000360 d5 44 0c be c9 a9 7c bd 9d f2 0c be d1 49 07 3e
       -0.13698132 -0.061685357 -0.13764425 0.13211752
000370 8a 48 3f 3e 27 e0 de 3c ad 20 a7 bc d1 3e 01 be
       0.18680015 0.027206494 -0.020401323 -0.12621619
000380 82 ad 05 be f7 6e c7 3c 9b ff 38 bc 99 13 22 3e
       -0.13054469 0.024344904 -0.01129141 0.15827788
000390 f8 56 ba 3d 27 76 2b be 59 a0 6e bb 26 4c 24 be
       0.09098619 -0.1674429 -0.0036411493 -0.16044673
0003a0 8b e4 3b 3e 87 75 73 bd 3f fe 13 be 93 90 bc bd
       0.18348901 -0.059438255 -0.14452456 -0.09207263
0003b0 20 8a 30 3e d4 85 8b bd fa 9a 5f bd 17 29 c8 bc
       0.1724019 -0.06812635 -0.054591157 -0.024433656
0003c0 d1 46 12 be c0 bb bf 3d 50 b0 11 bd 50 aa 8c be
       -0.14284827 0.09361982 -0.035568535 -0.27473688
0003d0 9c 90 14 bd 44 1c dd 3d f1 0c d2 bd 3f f4 f4 bc
       -0.036270723 0.10796407 -0.102563746 -0.029901622
0003e0 2e 84 88 be 32 01 11 3e e5 cc d3 3d 5f 2b 43 be
       -0.26663345 0.14160612 0.10341815 -0.19059514
0003f0 8e 61 a5 be bf 3a a4 3d a3 29 a7 bd 80 06 aa bd
       -0.3230099 0.080190174 -0.081622384 -0.08302021

fc3.bias f4 [21]
000000 c9 7b 76 bd 76 3e d2 3b 1f 98 0f 3e 0d e5 5b 3e
       -0.060176644 0.0064161373 0.14022873 0.21474095
000010 0b aa 6a 3d f1 dd 33 be 88 a2 7a 3e 51 4b 0a bd
       0.05729107 -0.17565133 0.24476063 -0.033763234
000020 4e 47 c4 bd 7c 6b 37 be 49 4f 64 3d 5a f7 4f be
       -0.09583913 -0.17912096 0.055739675 -0.20309201
000030 0e 06 73 3e 93 17 92 3d ad 92 dd bd b2 3b 46 3e
       0.23732778 0.07133403 -0.10818992 0.1935871
000040 f3 b8 79 bd ff f6 ab 3c bb a4 57 3d a2 74 c0 be
       -0.060967397 0.0209918 0.052647334 -0.37588984
000050 39 d5 30 be
       -0.17268838
